Model: "sequential_5"
_________________________________________________________________
 Layer (type)                Output Shape              Param #   
=================================================================
 flatten_3 (Flatten)         (None, 784)               0         
                                                                 
 dropout_4 (Dropout)         (None, 784)               0         
                                                                 
 batch_normalization_4 (Batc  (None, 784)              3136      
 hNormalization)                                                 
                                                                 
 dense_6 (Dense)             (None, 1000)              785000    
                                                                 
 dropout_5 (Dropout)         (None, 1000)              0         
                                                                 
 batch_normalization_5 (Batc  (None, 1000)             4000      
 hNormalization)                                                 
                                                                 
 dense_7 (Dense)             (None, 1000)              1001000   
                                                                 
 dropout_6 (Dropout)         (None, 1000)              0         
                                                                 
 batch_normalization_6 (Batc  (None, 1000)             4000      
 hNormalization)                                                 
                                                                 
 dense_8 (Dense)             (None, 1000)              1001000   
                                                                 
 dropout_7 (Dropout)         (None, 1000)              0         
                                                                 
 batch_normalization_7 (Batc  (None, 1000)             4000      
 hNormalization)                                                 
                                                                 
 dense_9 (Dense)             (None, 10)                10010     
                                                                 
=================================================================
Total params: 2,812,146
Trainable params: 2,804,578
Non-trainable params: 7,568
_________________________________________________________________

Loss: categorical_crossentropy

Optimizer:
name:Adamax
weight_decay:None
clipnorm:None
global_clipnorm:None
clipvalue:None
…
