Model: "sequential_13"
_________________________________________________________________
 Layer (type)                Output Shape              Param #   
=================================================================
 flatten_13 (Flatten)        (None, 784)               0         
                                                                 
 dropout_6 (Dropout)         (None, 784)               0         
                                                                 
 dense_45 (Dense)            (None, 396)               310860    
                                                                 
 dropout_7 (Dropout)         (None, 396)               0         
                                                                 
 dense_46 (Dense)            (None, 396)               157212    
                                                                 
 dropout_8 (Dropout)         (None, 396)               0         
                                                                 
 dense_47 (Dense)            (None, 10)                3970      
                                                                 
=================================================================
Total params: 472,042
Trainable params: 472,042
Non-trainable params: 0
_________________________________________________________________

Loss: binary_crossentropy

Optimizer:
name:Adamax
weight_decay:None
clipnorm:None
global_clipnorm:None
clipvalue:None
use_ema:False
…
