Model: "sequential_29"
_________________________________________________________________
 Layer (type)                Output Shape              Param #   
=================================================================
 flatten_29 (Flatten)        (None, 784)               0         
                                                                 
 dropout_61 (Dropout)        (None, 784)               0         
                                                                 
 dense_100 (Dense)           (None, 1000)              785000    
                                                                 
 dropout_62 (Dropout)        (None, 1000)              0         
                                                                 
 dense_101 (Dense)           (None, 1000)              1001000   
                                                                 
 dropout_63 (Dropout)        (None, 1000)              0         
                                                                 
 dense_102 (Dense)           (None, 1000)              1001000   
                                                                 
 dropout_64 (Dropout)        (None, 1000)              0         
                                                                 
 dense_103 (Dense)           (None, 10)                10010     
                                                                 
=================================================================
Total params: 2,797,010
Trainable params: 2,797,010
Non-trainable params: 0
_________________________________________________________________

Loss: binary_crossentropy

Optimizer:
name:Adamax
weight_decay:None
clipnorm:None
global_clipnorm:None
clipvalue:None
use_ema:False
…
