Model: "sequential_21"
_________________________________________________________________
 Layer (type)                Output Shape              Param #   
=================================================================
 flatten_21 (Flatten)        (None, 784)               0         
                                                                 
 dropout_30 (Dropout)        (None, 784)               0         
                                                                 
 dense_69 (Dense)            (None, 550)               431750    
                                                                 
 dropout_31 (Dropout)        (None, 550)               0         
                                                                 
 dense_70 (Dense)            (None, 550)               303050    
                                                                 
 dropout_32 (Dropout)        (None, 550)               0         
                                                                 
 dense_71 (Dense)            (None, 550)               303050    
                                                                 
 dropout_33 (Dropout)        (None, 550)               0         
                                                                 
 dense_72 (Dense)            (None, 10)                5510      
                                                                 
=================================================================
Total params: 1,043,360
Trainable params: 1,043,360
Non-trainable params: 0
_________________________________________________________________

Loss: binary_crossentropy

Optimizer:
name:Adamax
weight_decay:None
clipnorm:None
global_clipnorm:None
clipvalue:None
use_ema:False
…
