Model: "sequential"
_________________________________________________________________
 Layer (type)                Output Shape              Param #   
=================================================================
 flatten (Flatten)           (None, 784)               0         
                                                                 
 dropout (Dropout)           (None, 784)               0         
                                                                 
 dense (Dense)               (None, 1000)              785000    
                                                                 
 dropout_1 (Dropout)         (None, 1000)              0         
                                                                 
 dense_1 (Dense)             (None, 1000)              1001000   
                                                                 
 dropout_2 (Dropout)         (None, 1000)              0         
                                                                 
 dense_2 (Dense)             (None, 1000)              1001000   
                                                                 
 dropout_3 (Dropout)         (None, 1000)              0         
                                                                 
 dense_3 (Dense)             (None, 10)                10010     
                                                                 
=================================================================
Total params: 2,797,010
Trainable params: 2,797,010
Non-trainable params: 0
_________________________________________________________________

Loss: categorical_crossentropy

Optimizer:
name:Nadam
weight_decay:None
clipnorm:None
global_clipnorm:None
clipvalue:None
…
