Model: "sequential_12"
_________________________________________________________________
 Layer (type)                Output Shape              Param #   
=================================================================
 flatten_11 (Flatten)        (None, 784)               0         
                                                                 
 dense_27 (Dense)            (None, 392)               307720    
                                                                 
 dense_28 (Dense)            (None, 392)               154056    
                                                                 
 dense_29 (Dense)            (None, 392)               154056    
                                                                 
 dense_30 (Dense)            (None, 10)                3930      
                                                                 
=================================================================
Total params: 619,762
Trainable params: 619,762
Non-trainable params: 0
_________________________________________________________________

Loss: categorical_crossentropy

Optimizer:
name:Adam
weight_decay:None
clipnorm:None
global_clipnorm:None
clipvalue:None
use_ema:False
…
